…
_classifier.weight', 'classifier.weight']\n- This IS expected if you are initializing DistilBertModel from the checkpoint of a model trained on another task or with another architecture (e.g. initializing a BertForSequenceClassification model from a BertForPreTraining model).\n- This IS NOT expected if you are initializing DistilBertModel from the checkpoint of a model that you expect to be exactly identical (initializing a BertForSequenceClassification model from a BertForSequenceClassification model).\n\n\n\npprint(model)\n\nDistilBertModel(\n  (embeddings): Embeddings(\n    (word_embeddings): Embedding(30522, 768, padding_idx=0)\n    (position_embeddings): Embedding(512, 768)\n    (LayerNorm): LayerNorm((768,), eps=1e-12, elementwise_affine=True)\n    (dropout): Dropout(p=0.1, inplace=False)\n  )\n  (transformer): Transformer(\n    (layer): ModuleList(\n      (0-5): 6 x TransformerBlock(\n        (attention): MultiHeadSelfAttention(\n          (dropout): Dropout(p=0.1, inplace=False)\n          (q_lin): Linear(in_features=768, out_features=768, bias=True)\n          (k_lin): Linear(in_features=768, out_features=768, bias=True)\n          (v_lin): Linear(in_features=768, out_features=768, bias=True)\n          (out_lin): Linear(in_features=768, out_features=768, bias=True)\n        )\n        (sa_layer_norm): LayerNorm((768,), eps=1e-12, elementwise_affine=True)\n        (ffn): FFN(\n          (dropout): Dropout(p=0.1, inplace=False)\n          (lin1): Linear(in_features=768, out_features=3072, bias=True)\n          (lin2): Linear(in_features=3072, out_features=768, bias=True)\n          (activation): GELUActivation()\n        )\n        (output_layer_norm): LayerNorm((768,), eps=1e-12, elementwise_affine=True)\n      )\n    )\n  )\n)\n\n\nトークナイザーで生成した辞書を展開してモデルに入力すると、PyTorchのテンソルが出力されていることが確認できる。\n\noutputs = model(**inputs)\nprint(outputs.last_hidden_state.shape)\n\ntorch.Size([2, 16, 768])\n\n\n\noutputs\n\nBaseModelOutput(last_hidden_state=tensor([[[-0.1798,  0.2333,  0.6321,  ..., -0.3017,  0.5008,  0.1481],\n         [ 0.2758,  0.6497,  0.3200,  ..., -0.0
…
